checkpoint_actor.pth (torch_old, 169524 bytes, 6 tensors)

fc1.weight f4 [256, 33]
00000000: 18fe 823b 0961 653c 7c83 c7bd 8290 b8bc
00000010: 0b8d d4bd b082 cebd bfd9 0cbe 2e58 383e
00000020: df9b b33c 3633 d03c 1860 8f3d 320a 34bc
00000030: b210 90bd 863b 333d 163c 61bd 80f9 cdbd
00000040: eae6 423e c876 fa3c 8bc9 da3c a5d7 0fbd
00000050: 6e8d 0abd 0c03 083e 780d 283d ab0a 933d
00000060: 634b 8dbd e6bf 46bd ab96 1d3e c344 f2bc
00000070: 352c 64bd 509f f63c 1e89 613d bee8 413d
00000080: 8804 bbbe 70ef 323d 2d62 c03d 1f4b 9e3d
00000090: 9426 3dbd 5678 e83c 7c24 c53d 8540 9c3d
000000a0: 0fb3 f83b dca1 19bc aa73 043e 27c8 443d
000000b0: d633 313c ad49 60bd 790e 0e3d d0fb cabd
000000c0: 038b 09be a2db 233e 723a bfbd 55b2 d33b
000000d0: 1275 2d3d f0ad 06be dfb2 853d e6d6 f3bb
000000e0: 1955 963c 6a77 2c3d 4f8f 07bb ab68 3e3d
000000f0: 9275 8dbc f992 f3bd a037 3d3c e20a fb3c
00000100: d834 2b3d d663 fd3c 0ed9 d5bb 9c06 cc3d
00000110: f895 0bbc af70 dcbd ab51 febd 7f9d fa3d
00000120: ea97 82bd c06b a13c ba15 123d 440e a5bd
00000130: 548a 9f3d 7254 01bd 4c38 59bd 2f89 81bc
00000140: 4728 cf3d 4c56 0ebe bc6a ef3c 15ea 9fbc
00000150: 27db c33d befd 23bd 701f 33bd ced1 303e
00000160: 5ae2 b3bd 8f71 2e3e 0ba8 4bbc dc2c 8ebd
00000170: 17c1 293e 5be0 afbb 9ce2 fd3d 409c e43b
00000180: a0f4 943c b0d1 bd3b 5ca3 3bbc e45b 423c
00000190: cf64 1d3d c42f 673e af79 29be c2aa a03d
000001a0: 852a 863d 392b 793d b8ff 50bd bc3f f73d
000001b0: abef 1ebd 2162 72bc e172 5b3e f7a2 febb
000001c0: e98f 3a3d a02e 593d 7d97 063c 89e2 4a3c
000001d0: 55c0 453b c602 bbbd 669f ca3c ea61 49be
000001e0: a5ec 24bd 124b ddbd e024 8ebd 9aa2 dfbd
000001f0: 6e35 ffbd de4f 95bd db9b 313e e094 263b
00000200: f8cb 963c 77ff 11be f4bb 32bd 29c4 133e
00000210: 3cc5 f9bc a8d6 45bc 669d 423e aac6 97bb
00000220: 2ee7 a53d 3df7 7c3d cf15 f4bc 6db2 8b3c
00000230: 061c 18bd da2e 903d c065 b8bd 5d81 893d
00000240: a18f 883c 558f 46bb 67e0 2bbe 7078 9abd
00000250: 4886 863d 2b7a 8dbd 7649 edbc 1b52 34bd
00000260: 3cee 6fbd 2308 c13d aea2 bdbc a2de a7bc
00000270: 7e88 c53c 291a 95bd 78cc 813c a882 b9bb
00000280: 9ff4 1bbe 600f e9bb 5f75 27bd 0eb9 4ebd
00000290: 9bac e5bc 5191 74bd 80b6 d03d 7ef9 04be
000002a0: 013e b1bd 9dc5 253c d925 973d 2418 d03b
000002b0: 9b9b ca3c 5b5d 00bd ff46 f23c 81bc b73b
000002c0: 6911 16bd a6db 10bc 6b9c 76bd 128b b9bd
000002d0: 361c 74bd 72a3 4bbc 4b90 1fbd 8954 19be
000002e0: e253 913c ba6a 043c 673e b43d ee06 2a3d
000002f0: fe4e e73d 5dde 42bd 1b1d 5dbe 7ebc fd3d
00000300: 53f4 433d f6f1 593d c695 7c3d b7fe 17bd
00000310: 7e01 7dbd 6622 3fbe 2062 10be 4256 5bbd
00000320: 63b9 073e c335 343d 2e12 50b9 41a5 4e3d
00000330: 55bc 093e 52b8 443a 84e3 703c 221d a9bd
00000340: 9b0a 82bd 1378 9b3d 69f5 bd3d 5e79 35be
00000350: bf66 99bc 64ef 6d3a 71b5 b3bd 5c03 7e3c
00000360: 7bc8 1ebd 8ab4 2f3d 17aa 8abb 5986 fdbd
00000370: b0e6 fe3c 3f2c aabd cb3d 333d 7fbe a1bd
00000380: dec2 e03d b4bb c1bd c903 9dbc beb8 59bd
00000390: 4905 183e 8252 7dbd e74b af3d c46d ce3c
000003a0: 225f 78bd 0bb0 323d 23c6 983c 7514 c93c
000003b0: 1667 fabc 55f3 603d 8a19 253c 2540 c63d
000003c0: 0f1a 4f3c 2128 263e 4e81 4a3e 5ccd b7bd
000003d0: dc7d f23d 6334 87bd 8cee 87bd ff53 173e
000003e0: 6f3f 043d 842e 0fbc 97d4 81bd dbe0 9c3c
000003f0: a34b 2ebc 2792 f5bc 9d20 1c3d a0a0 b5bc
0.0039975755 0.014000186 -0.097418755 -0.022529844 -0.10378464 -0.100835204 -0.13754939 0.18002388
0.021924911 0.025415044 0.0700075 -0.010988759 -0.070344344 0.043757938 -0.054988943 -0.10057354
0.19033399 0.030574217 0.026707431 -0.035117764 -0.033826284 0.13282412 0.04102847 0.07179769
-0.068991445 -0.048522852 0.15389507 -0.029573804 -0.05570622 0.030105263 0.055062406 0.0473411
-0.36526895 0.043685377 0.093937255 0.07729172 -0.04617937 0.028377693 0.096260995 0.076294936
0.007589705 -0.009376969 0.12934747 0.048042443 0.010815581 -0.054757763 0.03468177 -0.09911311
-0.13431935 0.16001752 -0.093373194 0.006460468 0.042347975 -0.1315229 0.065282576 -0.0074413894
0.018351125 0.04210607 -0.0020684784 0.046486538 -0.017267976 -0.11893267 0.011548907 0.030644838
0.041798443 0.030931395 -0.006526119 0.09962198 -0.008519642 -0.1076368 -0.12417921 0.12237071
-0.063766316 0.0197047 0.03566525 -0.080593616 0.07790056 -0.031574674 -0.053032205 -0.015812485
0.10115104 -0.13900107 0.0292257 -0.019520799 0.09563284 -0.04003691 -0.043731153 0.17267534
-0.087834075 0.17035507 -0.012430201 -0.0694215 0.16577564 -0.0053673214 0.12396738 0.0069766343
0.018183053 0.005792819 -0.011452522 0.011862729 0.038426217 0.22576815 -0.16550325 0.078450695
0.06551079 0.060832236 -0.051025122 0.12072703 -0.038802784 -0.014793904 0.21430542 -0.0077708918
0.0455474 0.05302298 0.008214829 0.012383112 0.0030174453 -0.09131388 0.02473421 -0.19666258
-0.040264744 -0.10805334 -0.06940627 -0.10919686 -0.12461363 -0.07290624 0.1734461 0.0025418326
0.018407807 -0.14257608 -0.043636277 0.14430298 -0.030489556 -0.012075104 0.19005355 -0.004631837
0.08100735 0.061759222 -0.029795555 0.017052853 -0.0371361 0.07040186 -0.09003782 0.06714127
0.01667005 -0.0030297835 -0.16784821 -0.07542503 0.06568581 -0.06908067 -0.028965693 -0.044023614
-0.058576807 0.0942538 -0.02314886 -0.020491902 0.024112936 -0.0728038 0.015844569 -0.0056613274
-0.15230034 -0.0071124285 -0.04088342 -0.05046945 -0.028036406 -0.059708897 0.10191059 -0.12985799
-0.086544044 0.010117915 0.07380266 0.006350534 0.024732402 -0.03133903 0.02957487 0.005607188
-0.036637697 -0.008841431 -0.060207766 -0.09059729 -0.059597217 -0.012429105 -0.038955968 -0.14973654
0.017740194 0.008082086 0.08800965 0.041510515 0.112943634 -0.047575343 -0.21593134 0.12389468
0.047840428 0.053209268 0.061666273 -0.03710815 -0.061769 -0.18665466 -0.14099932 -0.05354906
0.13254313 0.043996584 -0.00019843198 0.050450567 0.13450749 0.00075042725 0.014702681 -0.0825751
-0.06349679 0.07591262 0.09275324 -0.17722079 -0.018725751 0.00090765045 -0.087748416 0.015503731
-0.03876541 0.042896785 -0.004231702 -0.123791404 0.03111586 -0.083092205 0.043760102 -0.07897662
0.10974668 -0.0945963 -0.019166844 -0.0531547 0.14845766 -0.061846264 0.08559399 0.025198825
-0.0606376 0.04362492 0.018649166 0.024545887 -0.030566733 0.05491956 0.01007689 0.09680203
0.01264049 0.16226245 0.19775888 -0.08974716 0.11840412 -0.06601789 -0.06637296 0.14778136
0.032287057 -0.0087391175 -0.063393764 0.019150188 -0.01063815 -0.029976917 0.03811704 -0.022171319

fc1.bias f4 [256]
00000000: e088 03bd b128 933d 79c1 f73d 1258 94bc
00000010: 79c1 3fbd 795c 58be 3901 bbbc c4ca 94bc
00000020: aec4 6ebd 15ac 06bd 585d d63d 3be4 a4bd
00000030: fdae 823c 474c c9bd b8c5 97bd e7e5 c83d
00000040: 9f94 1f3e 6bf0 27be 4bba d5bd 5c49 a63c
00000050: 8b88 f83b a904 89bd 66ce 413e 0512 473d
00000060: ede1 523d e1cb 243d 62ab a8bd 53ee 56be
00000070: 6953 8e3d 3eca bd3d 3910 033e 46e9 0cbd
00000080: 7031 3f3e 34d0 013e 7baf 9a3b fb2d edbd
00000090: b6fa d83d 3ddc 55be 48d9 3ebd 7d50 b53d
000000a0: 3b2b 813d 2fac 933d 96a3 18bd f40a 3f3e
000000b0: 4d28 0dbe 3be3 14be c4e1 253e 0bb0 cbbc
000000c0: b483 093b e714 e8bd c512 1dbe cab9 433d
000000d0: 8cd9 893d fec9 be3d 1698 e63d ab36 8abd
000000e0: 7046 e33d 35c8 203e 94b6 843c 09fd 853c
000000f0: 9d94 963d 6cea 14bc 91d7 22bd fff2 333d
00000100: 8b9d 06bb 1805 76bc 3bda 8d3b 8075 29bc
00000110: b55a 213e 25be 2d3e acb5 103e 9acf 78bc
00000120: a86f f9bc 0b7d 9a3d 7063 15be daf5 dabd
00000130: 2825 dabd fead a1bd 3d86 51be 4748 24be
00000140: 75fa 303e 5dbc 213e ccda 99bd 0ec6 c9bd
00000150: 4be6 443e 769c 4d3c 3dde 043b c5a9 bd3d
00000160: 4a64 f1bd 63ba 02be a159 163d 7cb1 61be
00000170: 9af1 2ebe dabc 78bd 6329 d7bc c4b5 5e3c
00000180: bbd9 a73d 25be edbc 1344 56bd 8413 f3bc
00000190: 5eb3 1abe 976d 0bbd c6dc e33d f34d 6bbb
000001a0: cd86 053e 3850 20bd bee9 9d3c f311 09be
000001b0: f5a5 ce3c ed37 343c 58f6 153d 0ed8 443e
000001c0: 2a02 c0ba b11d 133e 2e3f 923e bc4a 883d
000001d0: 71fb 28bd f8f8 d43d 6785 803e 2fa9 6fbe
000001e0: 5c18 5bbd c7fa 243e 9284 053d 2ab6 32be
000001f0: 43a4 9dbc 5893 1dbe a926 1a3e 722f 693d
00000200: 6590 5e3c 29af 4abe a3fb fabc 7dae 713d
00000210: 975b 33bd 2e12 a13d adb0 f8bd 9012 63bc
00000220: 79a0 3b3e a74e dc3d 775f 9dbc 4a34 f13d
00000230: 5dc4 debd 99de 43be a637 843d 6e7c da3d
00000240: 81e6 2e3e e959 483e 16c3 703e 69aa 263d
00000250: f1c2 2b3e d0d5 8fbd 5567 0a3d 41f0 ccbc
00000260: c1e4 df3d ebee 2fbe bb75 35bd 716f 213e
00000270: d97f a8bd 1164 9cbd b4ce 03be d53c 4a3d
00000280: 0288 fcbd f252 acbd e2fa b93d 7a99 8c3d
00000290: bba3 28be 2fc1 aa3d c5be 1cbe fd53 6e3d
000002a0: f348 1fbe 8bc5 22be 6670 793c dc8d ed3d
000002b0: e782 423e bcc0 0b3e 0530 263e acda d03d
000002c0: 7ade 4a3e aa7b 813b 5d82 93be 2041 5c3d
000002d0: 345d ff3d db55 8ebd ccb2 cebd 1db7 303e
000002e0: 4fd8 183e 68d4 10be 9577 acbd 04ad 43be
000002f0: 740c 8c3d 11e6 37be 2fb2 923d 3f48 21be
00000300: aaa3 8b3d 5490 483e d5a6 eb3d 9df1 e43d
00000310: 5679 5cbe b9c2 c4bd 465b 3ebd e952 2dbe
00000320: a3d0 89bd a9ac aabd ac2a e6bc 65c1 e5bc
00000330: 5e6c d33d e199 07bd 92b5 c73c e299 4a3d
00000340: 6879 5dbe 694b 62bd 0bb0 d8bd 71f5 61be
00000350: df42 173d b8f0 12be bebf 4d3d ca81 673e
00000360: 8619 e03d 74c8 8f3d 4f42 0d3e 1d5c 34be
00000370: 5a54 61bd f9e9 6c3e eb20 8e3e d21e a03c
00000380: 6993 6c3d 47a0 dd3c 719a 0cbe f05e 103d
00000390: 8276 97bd 1ee9 d2bd 1e26 b23c cfc4 c63d
000003a0: f24c bebd c6c1 413d 5b14 93bc c72b f7ba
000003b0: 7433 0fbe 5acf d03d 1597 863d d08a 0fbe
000003c0: 4e03 59bd 5bf5 183e a1f5 8fbc 74b9 103e
000003d0: 1794 d93d 7d65 8c3d 443e 973e a3fc fd3d
000003e0: c2c1 b63d 8553 5e3d e7c7 023e cce8 55bd
000003f0: ff99 953d c2a4 f7bd 449f efbd 53e9 c13d
-0.032112956 0.07185496 0.12097449 -0.018108401 -0.04681537 -0.21129026 -0.022827731 -0.018163092
-0.058293037 -0.032878954 0.10467023 -0.08051344 0.015952582 -0.09829002 -0.07410759 0.098094754
0.15584038 -0.16400306 -0.10435923 0.020298652 0.0075846366 -0.06690342 0.18926391 0.04860117
0.05148499 0.040233497 -0.08235814 -0.20989351 0.06949503 0.0926709 0.12799157 -0.034402154
0.18671203 0.1267708 0.004720626 -0.11581036 0.10594694 -0.20884795 -0.046593934 0.088532425
0.06307074 0.07210576 -0.037265383 0.18656522 -0.13784905 -0.14539807 0.16199404 -0.024864217
0.0020983042 -0.11332112 -0.15339191 0.047784604 0.06730947 0.09315871 0.11259477 -0.06748708
0.11097419 0.15701373 0.016200341 0.016356008 0.073525645 -0.009089094 -0.03975636 0.04393291
-0.002054068 -0.015015863 0.0043289936 -0.010342956 0.15757258 0.16967066 0.14131802 -0.015186215
-0.03044875 0.07543381 -0.14588714 -0.10691424 -0.10651618 -0.078945145 -0.20461364 -0.16043197
0.17283042 0.15794511 -0.07512435 -0.09852229 0.19228475 0.01254951 0.0020274066 0.092608966
-0.11786707 -0.12766413 0.03670657 -0.22040361 -0.17084351 -0.060726978 -0.026264852 0.013593141
0.08195826 -0.029021332 -0.052311014 -0.029672392 -0.15107486 -0.03404006 0.111260936 -0.0035904616
0.13039704 -0.039139003 0.019276496 -0.13385753 0.025225619 0.010999662 0.036611885 0.19223043
-0.0014649082 0.14366795 0.28563827 0.066548795 -0.04125542 0.103990495 0.25101778 -0.23404382
-0.053490028 0.16111289 0.032597132 -0.17452303 -0.019243365 -0.15388238 0.1505381 0.056930013
0.013584231 -0.19793381 -0.030637568 0.059004296 -0.04378852 0.078647956 -0.12143073 -0.013859406
0.18322934 0.10757189 -0.01921056 0.117775515 -0.10877297 -0.19127883 0.064559266 0.10668264
0.17080118 0.19565548 0.2351192 0.04068986 0.16773583 -0.070232034 0.03378995 -0.025016906
0.10932303 -0.17180984 -0.04430173 0.15765168 -0.0822751 -0.07636274 -0.1287182 0.04937442
-0.12330629 -0.08414258 0.09081055 0.06865211 -0.16468708 0.08337628 -0.15307148 0.058185566
-0.15555172 -0.15895669 0.015224552 0.11599323 0.18995248 0.13647741 0.16229255 0.10197958
0.1981143 0.0039515095 -0.28810397 0.053773046 0.12468949 -0.069499694 -0.100926965 0.17257352
0.14926265 -0.14143527 -0.08421246 -0.19108969 0.06838313 -0.17958857 0.07162892 -0.15750216
0.06818326 0.19586307 0.1150643 0.111788966 -0.21530661 -0.09607453 -0.046473764 -0.16926159
-0.067292474 -0.083337136 -0.02809652 -0.02804632 0.10323404 -0.033105735 0.024378572 0.04946316
-0.21628344 -0.055247698 -0.105804525 -0.22066285 0.036929008 -0.1434964 0.050231688 0.22608104
0.10942368 0.07020655 0.13794826 -0.17613263 -0.055012085 0.23136128 0.2775949 0.019545946
0.05775777 0.027053965 -0.1373079 0.03524679 -0.073956504 -0.1029837 0.021746691 0.09705507
-0.0929202 0.047303937 -0.017954042 -0.0018857651 -0.13984472 0.10195799 0.06571785 -0.14017797
-0.052981667 0.14937346 -0.01757318 0.14133245 0.10623949 0.06855295 0.29539692 0.12401702
0.08923675 0.05427887 0.12771569 -0.052223966 0.07304763 -0.12091972 -0.117002994 0.09468331

fc2.weight f4 [128, 256]
00000000: 845e debd 6d84 c5bc 3dbb 41be 9c7f bb3d
00000010: e5bc afbd 0ef2 dabd b6a5 8dbd 5e21 213e
00000020: 6832 96bd 0b7f 19bc 5443 7cbd 5665 843e
00000030: 7b5f 393d 7459 193d cf04 ef3c e6c9 9bbd
00000040: 5a7e 273e ebdd afbc 8efa d53c 0a2c 2dbe
00000050: 6ceb a13d 6297 fe3d a0fd cabd 781d adbd
00000060: 6e6d 6bbd b172 1fbb 2d34 fb3d 176a a2bd
00000070: 8b64 4bbd d2d1 f8bd 2fe2 0f3d 3cb1 4ebe
00000080: 33a9 633c 212c 9c3d ed76 b6bc a790 ac3d
00000090: b363 5c3d 0575 353e c0f1 bbbd 97ae 23bd
000000a0: f4af 4fbd 106b babe 8169 943d 4205 dc3b
000000b0: c3f6 c73d 27f0 89ba 7688 f8bd 84e0 733d
000000c0: 8bc0 d23d ac94 2e3e 6641 863d afac 5b3d
000000d0: 6a9d 9cbd e92b 0d3d 70eb 3c3d a71c f8bd
000000e0: e3e0 19be 7c29 b93d d35a 9e3c f94f 123e
000000f0: 3f4d 0f3e 2a2e 2c3e 7c57 a13d 336d eabc
00000100: fcc7 0b3e 493c 453d 244a 2d3d 494c 51bd
00000110: e6a8 f9bd c39f 44bd 3e22 af3d 9a20 74be
00000120: 2fb3 153d d4e6 a8bd c4bc 12bd 52e5 87bd
00000130: b713 deba 21c8 28be 0b1e d4bd 4c5d 043e
00000140: ca5a 2d3d a930 35be e638 bdbd 87d2 2fbe
00000150: f291 8e3d df6a b3bc 249c 2fbd 1fba 51bc
00000160: 5e6d 99bd 4a2b 2fbc d14b 303d 284e 54be
00000170: 9ce4 ba3d 7d15 15be 31cf 66bd dfe4 dcbd
00000180: b838 d13d fa74 063d cdb2 c33d 5e66 52bd
00000190: d139 78bd 91ec d0bc 1bbb 02bc 456f 38be
000001a0: 8ba8 213d c9e5 8bbd 1daa e9bd 4477 013e
000001b0: 99d7 85bd b6ec f33b 43be 833d 3ece 84bd
000001c0: 20e2 f9bd 670b 1dbd 3f6f 7ebd 5bc5 733d
000001d0: 389c 903d 0baa 3abe b160 c13d 94f8 953d
000001e0: 17e0 00be 3c39 053d d59f 36bd a9f6 6e3e
000001f0: ee3a 08bd d27e 013d 2174 ebbd be02 a1be
00000200: ff1b 0f3d 1c88 f73a 1c0f 17be c540 d63d
00000210: 6ed1 503c 6b63 98be 3829 ae3b a3a5 1bbd
00000220: 72bb ce3c 38a8 bdbd 06c7 6ebb 6ec8 583d
00000230: 958d 583d 9bd4 a1be ee0d 913e b091 8f3d
00000240: eba4 1fbe b758 29be 61cf 653b 4b4a cb3d
00000250: e915 5f3e a398 01bc 208a 8e3d 5b40 adbd
00000260: dc16 003e 1ef1 81bd 9ec0 22be c43a 783b
00000270: 5292 1fbd fb45 cd3c dc31 bf3d b5a7 bb3d
00000280: acea 7a3d 5bad dd3d 5160 d03d 1d28 bdbd
00000290: 66fd 77bd 8fd4 023e d8b8 6cbb ce35 e1bd
000002a0: 6817 dbbc 5cab 0ebd d617 a73d bf28 e73d
000002b0: 3e37 92bd 340a ed3d 2b09 a5bd bc62 8bbd
000002c0: e36d 8abd 3a6e b8bd 6a56 38be 9b32 48be
000002d0: 266d 393d aee0 a53d 5f60 3abd eb42 1b3d
000002e0: be9c d9bd 9bb6 e63c 2c5d c43c b397 ca3d
000002f0: 92b7 01bd 7bcc 1bbe cfa3 11be 5f9c 16bd
00000300: 3096 88bd fb3d 11bd 52ea 53be 78e0 943d
00000310: 92ce f63d ea11 9bbd 3340 b03c d273 ac3d
00000320: bbab 713b 2d30 4b3e 80f1 ca3c f355 2e3c
00000330: 3b80 0e3d bae1 ce3d 8a8d 4bbd cab8 6d3d
00000340: dc2a 153e 1a70 0dbe 23e9 1b3e 95da a53d
00000350: fcec 6dbd 45a4 83be f038 eebd 10f6 8e3c
00000360: 5826 e1bc 414f 5dbd 8f58 55bd 1976 c5bd
00000370: 6281 1b3d ef2a ce3b bf32 e0bd bcdc 3e3e
00000380: 46c4 cebd 0f33 a33d cb13 093e 2ed7 04bd
00000390: 2ebf db3b 613a 42bd d49c d1bd 89ed 113e
000003a0: 43c6 c53c 9c12 933d e9c8 a03d 6653 0ebe
000003b0: 1802 c9bc 2f41 e4bd 5ee0 f6bc e9cd 9b3c
000003c0: 6159 603e f537 243e b46e 7e3d 682d 973d
000003d0: fb72 1abe 472b e6bd f7d6 bb3d 8ec7 cbbd
000003e0: bd31 413d 351d e83c 8c69 b73b 46cc 173d
000003f0: f768 63bd 7952 7ebe a0ec cfbd d065 3b3d
-0.10857871 -0.024110997 -0.18919082 0.09155199 -0.08580951 -0.106906995 -0.069163725 0.15735385
-0.07333833 -0.009368668 -0.061587647 0.25858563 0.045257073 0.037438825 0.029177098 -0.076068684
0.16356793 -0.021468123 0.02612045 -0.16911331 0.07906231 0.12431218 -0.099116564 -0.08452886
-0.057477407 -0.0024329836 0.12265811 -0.07930391 -0.049656432 -0.12149395 0.035127815 -0.20184797
0.013895321 0.076256044 -0.022273505 0.08426028 0.053806018 0.1772042 -0.091769695 -0.039961424
-0.05070491 -0.36409807 0.07246686 0.006714494 0.09763863 -0.0010523841 -0.12135403 0.059540287
0.10290631 0.17048901 0.065554425 0.05363148 -0.07647212 0.034465704 0.04612297 -0.1211484
-0.15027194 0.09041116 0.019330418 0.1428832 0.13994311 0.16814485 0.078780144 -0.028616523
0.13650507 0.048153196 0.042307034 -0.05109814 -0.12190418 -0.048003923 0.08551453 -0.23840562
0.036547836 -0.08247152 -0.035824552 -0.06635536 -0.0016943131 -0.16482593 -0.10357293 0.12926215
0.04232291 -0.17694344 -0.09239368 -0.17170154 0.069614306 -0.021901546 -0.042873517 -0.012800722
-0.07491563 -0.010691473 0.043041054 -0.20732939 0.09125635 -0.14558978 -0.056349937 -0.10785841
0.10215896 0.0328264 0.09555588 -0.051367156 -0.060602013 -0.025503429 -0.00797918 -0.18011196
0.039467376 -0.068309374 -0.114094 0.12643152 -0.065352626 0.0074439896 0.06432774 -0.0648465
-0.12201333 -0.038340952 -0.06211781 0.059514385 0.07061046 -0.18228929 0.094422705 0.07322803
-0.12585483 0.032525286 -0.04458602 0.23336281 -0.033259325 0.031615086 -0.11496759 -0.31447405
0.03493881 0.0018885168 -0.14751858 0.104615726 0.012745244 -0.2976335 0.0053149723 -0.03799976
0.025235865 -0.09260601 -0.0036434545 0.05292552 0.0528694 -0.31607518 0.2833094 0.070102096
-0.15590255 -0.16537748 0.0035066234 0.0992628 0.21785702 -0.007909927 0.06959939 -0.084595405
0.1250872 -0.063448176 -0.1589379 0.0037876824 -0.0389579 0.025057783 0.09335682 0.09162847
0.061258957 0.108240806 0.10174621 -0.092361666 -0.060544394 0.12776397 -0.0036120918 -0.109965906
-0.02674456 -0.03483139 0.08158843 0.112870686 -0.07139443 0.11574212 -0.08058389 -0.068059415
-0.067592405 -0.09005399 -0.18001714 -0.19550554 0.045270108 0.08099495 -0.045502063 0.037905615
-0.10625599 0.028163245 0.023970209 0.098922156 -0.031669207 -0.15214722 -0.14222644 -0.03677022
-0.06669271 -0.0354595 -0.20694855 0.072693765 0.12051119 -0.07571776 0.021514988 0.084205285
0.003687604 0.19842596 0.02477336 0.010640609 0.03479026 0.10101648 -0.04969553 0.058037557
0.14567131 -0.13812295 0.15225653 0.08098332 -0.058087334 -0.25711265 -0.11631954 0.017451316
-0.027484104 -0.05403066 -0.05208641 -0.09641666 0.037965186 0.006291739 -0.10947179 0.18638891
-0.1009603 0.07968723 0.13386457 -0.032431774 0.00670614 -0.047418956 -0.10234991 0.14250769
0.02414239 0.07181284 0.078508206 -0.13899001 -0.024537131 -0.11145245 -0.030136283 0.019019084
0.21909095 0.16036971 0.062117293 0.073817074 -0.15082924 -0.11238723 0.09171861 -0.099501714
0.047166575 0.02833424 0.005597299 0.037060045 -0.055520024 -0.24836148 -0.101525545 0.045751393

fc2.bias f4 [128]
00000000: ddaa 183c e393 143d a012 c4bc ed06 543d
00000010: cad7 c2bc 703a 19bc 3346 e93b 757f 4b3e
00000020: f515 cbbd d6e9 d63b 18e2 7a3d f077 a13d
00000030: 7f0d a23c 560d 3cbd e518 923c a0b1 0b3d
00000040: 3170 2c3c 89e7 38bc fd69 563c 507b 33bd
00000050: c6e8 403d 2c8b 63bc 70fe 213d ee1f ae3c
00000060: 4f59 d33c bd30 7c3c 3c73 2a3c 8c19 c2bd
00000070: 9851 bdbc 449c aabb ffb2 7bbd fc6c 553d
00000080: 824a 2c3d 4cc1 a6bd 34f0 67bd 6a5c 1dbc
00000090: 7df9 bcba 1ac6 fbbc 25fa 9d3c 9029 d13b
000000a0: 486e 233c d0e0 30bd 6802 32bd e2de 4e3d
000000b0: 27cb 353d 4b9b 1039 11a2 fbbb 0c86 ce3c
000000c0: 6b71 a5bc e8b2 0eba 0087 abba 86a3 49bd
000000d0: e628 19bd 97d9 b6bc f832 053d f078 ebbc
000000e0: 0e82 47bd dcd9 673d 25cc 89bd 2ae0 a43c
000000f0: 01cc 85bc b075 053d 4a84 28bd db98 5e3c
00000100: 2519 e0bc f8ac 303d b5e2 81bd b130 86bd
00000110: ddd2 85bd 1e3d d5bb 01e6 16bb 2e07 573d
00000120: aae4 463d b80d cabb 3054 2b3d 1279 6b3d
00000130: 3cfe bf3c dd40 88ba 3d21 6ebd 6164 92bd
00000140: 8f05 543d e19a 873b 891b a8bd 49fb 11bd
00000150: dbcb 88bd e9fc 29bd faf7 dc3d 0989 42bd
00000160: 284c 533d 7fd7 433d be37 803d 722d f33c
00000170: b40a a23c e508 2dbd d754 8abd ccdc 3c3c
00000180: c142 b73c b3e2 973c a439 c9bd 9257 163d
00000190: 94d6 a9bc 6258 8bbc bafc 893d d638 19bd
000001a0: 106b 84bd 7773 123c 3063 a1bd 830b bfbd
000001b0: 0bb6 643d 10fd 6c3c cbcd 90bd 6ee1 ce3c
000001c0: 8417 e43c b757 813d 7cbb cc3d f410 133d
000001d0: 0585 d63c b04a 4dbd 377d 5ebd 2548 ae3a
000001e0: 63b5 8bbd 2ce8 54bc cbd4 10bd 83c6 73bb
000001f0: 412a 81bb bbe1 5cbd 2782 96bc 8d2c 1b3c
0.009318081 0.03627385 -0.023934662 0.051764417 -0.023784537 -0.0093523115 0.007118964 0.1987284
-0.09916297 0.006558637 0.061250776 0.078842044 0.019781826 -0.045911156 0.017834136 0.034104943
0.010524795 -0.011285671 0.013086793 -0.04381877 0.04709699 -0.013888162 0.03954929 0.02125546
0.025799422 0.0153924795 0.010403451 -0.09477529 -0.023110196 -0.0052066166 -0.06145 0.05210589
0.042063244 -0.08142337 -0.05662556 -0.009604553 -0.0014417615 -0.03073411 0.019284317 0.0063831285
0.009975024 -0.043183148 -0.043459326 0.050505526 0.044383194 0.00013790761 -0.007679232 0.025210403
-0.020195683 -0.0005443529 -0.0013086498 -0.049228214 -0.03739252 -0.022320552 0.03251931 -0.02874419
-0.048708014 0.05660425 -0.067283906 0.020126421 -0.016332628 0.03258294 -0.041141786 0.013586248
-0.02735574 0.043133706 -0.06342069 -0.06552256 -0.065343596 -0.00650753 -0.0023025277 0.05249708
0.048557915 -0.006166186 0.041828334 0.05748851 0.023436658 -0.0010395307 -0.058137167 -0.07148052
0.051763114 0.004138336 -0.08208377 -0.035640035 -0.06679507 -0.04150096 0.10789485 -0.04749397
0.0515863 0.047812935 0.06260632 0.029684756 0.019780494 -0.04224481 -0.06754463 0.011527251
0.022370698 0.018540716 -0.09825447 0.036704607 -0.020732202 -0.017009918 0.06737657 -0.03740772
-0.06465733 0.008938662 -0.07880247 -0.093283676 0.055837672 0.014464632 -0.07070502 0.025253978
0.027843244 0.063155584 0.09996697 0.03590484 0.026186476 -0.050120056 -0.054318633 0.0013296647
-0.06821706 -0.012994807 -0.035359185 -0.003719718 -0.0039418046 -0.05392621 -0.018372608 0.009471071

fc3.weight f4 [4, 128]
00000000: fc2b 9dbd 527e f9bd caef b53d b8fc 39be
00000010: 02e9 9a3e 9500 2ebd ac07 023e 85e3 6ebe
00000020: 38fa fe3e 83f2 f1be e6b6 4bbd 3cf3 aebe
00000030: ade5 de3e db26 b83e b2df d23e d501 d3bd
00000040: d7c7 3b3f ef2e d33e 0912 6dbe 2daf c9bd
00000050: abb1 e73d 2498 c33c 42ae 9e3c 3f94 b8bd
00000060: 3691 e0bc 6fd5 09bd 7e7f 71be 9b23 3f3d
00000070: e105 89be b9bf 72be 648b 9a3e 9e30 53bd
00000080: 6893 7dbd ca21 543e 1035 06bd 19ae 7b3e
00000090: fdc2 7a3d 0fb3 7e3d ba0f 3f3e ba1f eb3d
000000a0: 24e6 68bd 5973 40be f810 a13d 19bc 1cbd
000000b0: 7750 b83d 8c8e 2d3d 730f c7bc 1f68 e8bd
000000c0: b366 9c3e 98d8 8a3d cff1 38be 7b3c 223d
000000d0: 0720 a63b 1b44 f33e f1f5 6cbd dc98 893e
000000e0: 5775 773e a641 4f3e 8dd8 113e 1ae8 d23b
000000f0: e151 2a3e c8aa 743b 5d7d 383d da47 26bd
00000100: 72c8 66be ee9d 50bd 742f 09be e7ca 723e
00000110: 4c51 c0bc 3a76 773e 9872 0a3e 1f65 96bd
00000120: 843a 35bc 063a 203d 1660 a3be 0abb cd3c
00000130: 5d4f c93c 7ab6 403f df1c 9cbe 2f30 2a3e
00000140: f8b6 04be 53c3 36be e6a6 08be e6ef 59be
00000150: 281a 02be 975b a2bd 8a9b 0bbd e400 de3d
00000160: 780f babd 4977 e63d 0639 06be 4139 f9bd
00000170: 6a64 86be ce5b fc3d 65ab a5bd 9d74 1abe
00000180: 9d88 0fbc ab10 cabd 3fb8 a43e 3e2e e7bd
00000190: 9d71 123f 5ead e83d 00ff 44be bf5f c73e
000001a0: 9349 afbd 49ac 44be 9407 7c3e b356 613e
000001b0: 306a fcbd 19f9 953e 467f b13e cf54 3f3e
000001c0: d56e 43bb 41d2 0d3f 08e1 48be 4f41 ed3c
000001d0: 8361 d6be 0d9f 69bd 4b16 a23e 3196 41bd
000001e0: e643 8abe 3424 2dbe a41a 263f f8e7 833c
000001f0: 7042 0d3f 112b 953e 71db c03e 2dde fbbc
00000200: f1ff b2be e3b3 2c3d 1e15 3fbe dddf e3bd
00000210: 4a9e 8c3d 6bf4 99bc 4cdb 253d ba20 bc3d
00000220: f629 ea3e 479c 133e dbd5 b53d 596d 273e
00000230: 9002 1fbd 57a8 183e 4edd 933b 16ff d5bd
00000240: e6fa a9be 19b8 eebe 5d37 8abe ab25 5bbe
00000250: c3a8 073d 1651 01bd de4b 5f3e a32a 2abd
00000260: b033 0ebd 7d72 9fbe 22a5 b1be ca84 5abe
00000270: fe71 723e c551 5bbd 4442 8cbe 5649 82be
00000280: 75eb 6e3d defa c23d 8bac 0c3e 1bc0 f63d
00000290: 476e 7a3e d315 1e3e 2ed4 b1bd 6dd1 14be
000002a0: 8ca8 fa3a abae a9bd 934d 6f3d 7356 433c
000002b0: b7d6 01bd 3c2e 903d 7414 e03d 32e8 053e
000002c0: 4090 4a3e 7d85 053e ddd0 ff3d 8664 fe3d
000002d0: f3b8 0bbe c586 13bd eabc 813d d8e5 593d
000002e0: ba91 e03d e74c c53c e5f4 06bf 1524 1a3d
000002f0: 07c7 e33d c5ce f43c ace1 bf3e 130b 6d3d
00000300: 79c2 573e bb64 19be 9395 00be d2d2 a83d
00000310: 1029 d0bd 2b34 19bd f3e7 abbb ef1b 893d
00000320: 58d2 64b8 ffa7 0c3e b4ba 523d 878f c33d
00000330: 3284 37be 926f 623e ccdf 1b3d f405 0bbf
00000340: 7604 19bc 1a4a 963c 26b0 afbe 389c 363d
00000350: 3e89 2fbe 9af1 44be 8fbc e93c 7d79 c83d
00000360: 3f42 ee3d 2db4 abbe 754f 9a3d 2e45 503e
00000370: 7f6a 023d 52f1 44be 2f8f 14be 5d63 9cbd
00000380: b4d1 92bc 1c68 89be 23a9 16be 6e0b a13d
00000390: 6c97 69be 8819 8f3d 8af7 26be d363 d03e
000003a0: 0599 9bbd d4f5 01bd b6b6 a53e 60ac 03be
000003b0: 963f 963b 9612 80bc 205f e6bd 3614 37be
000003c0: 25e3 623c 7c89 e7bc a55e 7b3d ec50 a03d
000003d0: 7b44 af3d 2128 00bd 80fb 45be 2db4 cebe
000003e0: 5807 143c 1d0a fabd c8c3 b0be e410 7e3d
000003f0: c07d 91bd 38c9 2d3d 12e3 933e 6d51 543e
-0.07674405 -0.12182297 0.08883627 -0.18162811 0.30255896 -0.042481024 0.12698239 -0.2332898
0.49800277 -0.47255334 -0.049734972 -0.34169948 0.43534604 0.35967144 0.4118629 -0.10303084
0.73351806 0.41246745 -0.23151411 -0.09847865 0.11313184 0.023876257 0.019370202 -0.09012651
-0.027412992 -0.03365081 -0.2358379 0.046664815 -0.26762298 -0.23705949 0.30184472 -0.051560037
-0.061908156 0.20716015 -0.032765448 0.24578132 0.06122111 0.062182482 0.18658343 0.11480661
-0.056860104 -0.18794002 0.07864565 -0.03826532 0.089997225 0.04237227 -0.024299359 -0.113479845
0.30547103 0.06779593 -0.18060993 0.03960846 0.005069736 0.47512898 -0.057851736 0.26874435
0.24165855 0.20239887 0.14242764 0.00643636 0.16632797 0.003733324 0.04504143 -0.040595867
-0.22537401 -0.050931863 -0.13397008 0.23710214 -0.023476265 0.24166194 0.13520277 -0.07343506
-0.0110613145 0.039117835 -0.31909245 0.025113601 0.024573976 0.7527844 -0.30490777 0.16619943
-0.12960422 -0.17847948 -0.13344917 -0.2128292 -0.1270529 -0.079276256 -0.03408388 0.108400136
-0.09084982 0.112532206 -0.1310769 -0.121691234 -0.26248485 0.12322198 -0.080893315 -0.15083547
-0.0087605985 -0.098664604 0.3217182 -0.11288117 0.5720461 0.11361192 -0.192379 0.38940236
-0.08558955 -0.19206347 0.24612266 0.2200573 -0.12324941 0.2929161 0.34667414 0.18684696
-0.00298207 0.55398947 -0.19617093 0.028961806 -0.4187127 -0.05703645 0.31657633 -0.047262374
-0.27004927 -0.16908342 0.648844 0.016101822 0.551795 0.2913442 0.3766742 -0.03074559
-0.34960893 0.04216374 -0.186604 -0.11126683 0.06866129 -0.018793305 0.04049234 0.091859296
0.4573514 0.14415084 0.0887868 0.16350307 -0.038820803 0.14907967 0.0045124656 -0.104490444
-0.33199233 -0.4662483 -0.26995364 -0.21401088 0.033119928 -0.03157147 0.21806285 -0.041544568
-0.03471726 -0.31142035 -0.346963 -0.21339718 0.23676297 -0.05354478 -0.27394307 -0.25446576
0.058330018 0.09520505 0.13737695 0.1204836 0.2445613 0.15438013 -0.08683048 -0.14533015
0.0019123717 -0.082852684 0.05842359 0.011922467 -0.03169891 0.070400685 0.10941401 0.13076857
0.1978159 0.13039203 0.124910094 0.12421517 -0.13644771 -0.036017198 0.063348606 0.05319771
0.10965295 0.024084521 -0.5271743 0.037632067 0.11121946 0.029883752 0.3747686 0.05787189
0.21070279 -0.14979832 -0.12557058 0.08243336 -0.10164082 -0.037403267 -0.0052461564 0.06694781
-5.4555334e-05 0.1373596 0.051447585 0.0954886 -0.17921522 0.22112873 0.038055226 -0.5430596
-0.0093394425 0.018345881 -0.34314078 0.044582576 -0.17142197 -0.19232789 0.028532295 0.09788797
0.11633729 -0.335359 0.075346865 0.2033889 0.031839844 -0.19232681 -0.14507745 -0.076361395
-0.01792226 -0.26837242 -0.14712958 0.07863508 -0.22811669 0.069872916 -0.16305366 0.4070116
-0.075975455 -0.03172858 0.3236596 -0.12858725 0.0045852168 -0.015633862 -0.112486124 -0.17878804
0.013848101 -0.0282638 0.061369557 0.078279346 0.085579835 -0.03128827 -0.19334221 -0.40371838
0.009034954 -0.1220896 -0.3452437 0.062027827 -0.07104063 0.042428225 0.28884178 0.20734186

fc3.bias f4 [4]
00000000: 8434 99bc 26bc 52bd ee46 e7bc d3aa 3dbd
-0.0187018 -0.051448964 -0.028232064 -0.04630549
