checkpoint_critic.pth (torch_old, 170026 bytes, 5 tensors)

fcs1.weight f4 [256, 33]
00000000: 0b7d 4d3d 993d da3d 743e be3d eccc 31bd
00000010: 9718 b63b 2ac0 7ebd 89f8 463e 5873 73bc
00000020: 89a9 35bd def6 f0bc 37c7 bcbc d035 cc3c
00000030: de86 17bc 8239 4ebd c96a cfbd 90b6 2ebe
00000040: 637e 123d 2eb2 b13c 6eb7 5dbc 0cc1 f2bb
00000050: dc2b 373c ca80 fc3b 3018 36bc 7027 4d3a
00000060: 1613 4ebd 27a5 04bd 8ceb 433d e672 b33d
00000070: 1688 a43d 48d3 57bd 5926 5fbc 9401 423d
00000080: 0335 9fbd f28e 9cbd 6a12 54bd db8a 62bd
00000090: f0e3 493c efd2 b0bd ba7a 57bc fa5e d33b
000000a0: e113 cd3c 414d 673c 4b6c 613b 2a14 59bb
000000b0: 8332 5bbb d97c 4cbd ab9c f33c b81d 2fbb
000000c0: ef55 bbbc 9363 24bb 403f d8bb 74ec b63c
000000d0: 59c4 88bc 360a 40bd c76d 9abc a41c 4cbc
000000e0: 631b 0b3c 2559 d7bc eb47 20bd 938d 933d
000000f0: ad9e b6bc 5997 213d a230 20bd e93a 283d
00000100: a6f9 623d b601 13be d1a6 c2bc 3328 833c
00000110: 06c0 1fbb ec14 42bc 938e e93c cdde c43c
00000120: 6301 bebd 9d85 0bbd adc1 eb3c 4546 f93c
00000130: d6d0 1abc 643a 353c 69cc 033d ee7f 843d
00000140: ea54 85bc 0b55 023d 3c3f f6bd 5086 a43c
00000150: fbf0 ad3d 2464 91bc abe4 38bc 9434 9b3c
00000160: f50f 163c 73b7 6abc 4faa 79bb 3296 d7ba
00000170: 14fe b43d 50ad ffbc 0c2a 393d 04a3 e43c
00000180: c3dc 1dbd de1a 64bd 46aa 2a3e 5bc9 1bba
00000190: c7e9 c3bb 1461 a83b 2b20 74bd 8df5 6f3c
000001a0: c31f f23b a8eb f13c 7931 773c 2c7c abbd
000001b0: 8d91 ab3c 9f0f 733c b03d cdbc b77a 4a3b
000001c0: 1932 84bd de40 a3bc 1b16 ba3c 97e5 a7bd
000001d0: be28 2e3d 1f10 fcbb da4e 3f3d be73 febc
000001e0: fce9 a4bc 7a80 13bd d9d3 d73b 5c1a 98b8
000001f0: d189 5cbc b0d8 92bd 6bd1 99bd 0bac b23c
00000200: 884e dfbc 41dc 18bc ec83 78bd 605f 9abd
00000210: 9978 c8bc 7607 d63d f979 073d df99 8ebd
00000220: e244 233c 5af3 05be 40f1 57bb 08ae 003c
00000230: 5d3e c9bd 2895 be3c 699b 9cbd 338b 623d
00000240: 704f e73c 8866 933c c344 b63c 22a4 8ebd
00000250: e822 9c3c 67ec be3a cd40 773d aee3 05bd
00000260: 6163 86bd d97d ba3c 3448 993c f549 d83d
00000270: 69ae bbbb 9ca5 85bd 8071 483d cb44 5d3d
00000280: 345e f53c 2c91 5dbd aaba 57bd cab1 6c3d
00000290: 4136 98be 54c2 823c 3d74 7a3c b404 823d
000002a0: 3336 76bc d0e4 45bd 5600 e93b 4002 acbc
000002b0: 452e c43d 39d8 e3bc 75b3 e63c 771d 383c
000002c0: 4026 ba3c 5944 3f3c a3f1 c33d e076 60bb
000002d0: 68d1 3ebc bc7b 32bd 365c 213d d66a 1f3d
000002e0: b21e 013d 0b8d 27bd 2daa d1ba aa89 71bd
000002f0: 8f62 01bd 6afb b1ba 9e6f 7d3c 9e87 733c
00000300: 6af9 703c 1fa2 be3d ba88 073d 7878 223d
00000310: c6b5 383d 941c d7bd 3dc1 febc 46cf bcbc
00000320: 234a 26bc de7d 95bd 218b 253d 7e97 d9bc
00000330: f4d9 45bd 4b49 d33c 48c8 d8bd fb74 5f3a
00000340: 4c8e 3b3d 9884 f2bc dade c3bd 8f40 ad3c
00000350: 7fde be3d 6562 80bd 79fb f6ba 4c15 74bd
00000360: 443f 8a3c 72c2 02bd 3f38 483c ca4e 1cbe
00000370: b9cc 9dbc 729c 49bd e0d2 00bc 174f 083d
00000380: d577 00bc 1af4 603c 54ab ba3d e45a d33c
00000390: 2b8b 4b3d e2bc 0e3d fedf 69be dd3c a9bc
000003a0: 3505 933d 546d 573d 7023 91bd 4b54 e2bd
000003b0: 3836 19be a05c b63c e267 033c 6034 3abc
000003c0: 8748 9dbd 69e5 6d3c 6653 83bc 60c6 7e3b
000003d0: 3145 63bd d983 07ba 9558 96bd 1999 163c
000003e0: 09e6 41bd c409 f73d da19 923a 75ac 613d
000003f0: f384 643c d9e3 9abc 3a74 913d b589 57bd
0.05016808 0.1065628 0.09289256 -0.04340832 0.0055571306 -0.06219498 0.19430746 -0.014859043
-0.044351134 -0.02941459 -0.023044212 0.024928004 -0.009248463 -0.050347812 -0.101277895 -0.1706183
0.035765063 0.021691408 -0.013532503 -0.007408267 0.0111798905 0.0077057825 -0.011114165 0.0007826006
-0.05031117 -0.032384064 0.047832057 0.087621495 0.08033769 -0.052691728 -0.013619983 0.047364786
-0.07773783 -0.07644452 -0.051775374 -0.055308204 0.012322411 -0.086339824 -0.013151819 0.006450531
0.025033893 0.01411754 0.0034396823 -0.003312359 -0.0033446855 -0.04992375 0.029737791 -0.0026720595
-0.022868125 -0.0025083765 -0.006599337 0.022329547 -0.016695188 -0.046884738 -0.018851174 -0.012458
0.008490416 -0.026287625 -0.039131086 0.072047375 -0.02229246 0.039450977 -0.03910888 0.041071806
0.055413865 -0.14356121 -0.023761185 0.01601038 -0.002437593 -0.0118458085 0.028510367 0.024032021
-0.09277608 -0.03406297 0.028778875 0.030429015 -0.009449204 0.011061285 0.032177363 0.06469713
-0.016275842 0.031819385 -0.1202378 0.020083576 0.08493229 -0.017747946 -0.011284987 0.01894597
0.009159078 -0.014325964 -0.0038095897 -0.001644796 0.08837524 -0.031210572 0.045206115 0.027909763
-0.038540613 -0.055689685 0.16666517 -0.0005942785 -0.005978796 0.0051385257 -0.05960099 0.014645946
0.00738904 0.029531315 0.015087479 -0.08373293 0.020943427 0.014835267 -0.025053829 0.0030895898
-0.06454868 -0.019928392 0.022715619 -0.08198088 0.042519324 -0.0076923515 0.046706058 -0.03106105
-0.020131104 -0.036011197 0.0065865335 -7.2528346e-05 -0.013460592 -0.07170236 -0.075106464 0.021810552
-0.027259126 -0.009329856 -0.060672686 -0.075377226 -0.024471568 0.10450642 0.033075307 -0.06962942
0.009965153 -0.13081113 -0.0032950193 0.007853992 -0.09826348 0.023264483 -0.0764683 0.055308532
0.028236121 0.017993227 0.022249585 -0.069648996 0.019059613 0.0014566303 0.060364533 -0.032687835
-0.06561924 0.022765087 0.018711187 0.10560981 -0.0057275784 -0.06525728 0.048936367 0.054020684
0.029952146 -0.054093525 -0.05266825 0.05778674 -0.29728892 0.015961803 0.015286502 0.06348553
-0.015027571 -0.048313916 0.0071106357 -0.020997167 0.09579138 -0.027813064 0.028161744 0.011237494
0.022723317 0.01167401 0.09567573 -0.0034250543 -0.011646606 -0.043575034 0.03939458 0.038920246
0.031523414 -0.040905993 -0.0015996151 -0.058969177 -0.031588133 -0.0013578956 0.015468506 0.014863877
0.014707902 0.09308266 0.033089377 0.03966567 0.045095228 -0.10503498 -0.031098003 -0.023048054
-0.0101495115 -0.07299398 0.040415887 -0.026561495 -0.04830356 0.025791785 -0.105850756 0.00085242064
0.04579 -0.029604241 -0.0956399 0.021148948 0.093197815 -0.06268767 -0.0018843255 -0.059590623
0.01687587 -0.03192372 0.012220441 -0.1526443 -0.019262658 -0.049221464 -0.0078627765 0.03327855
-0.00784107 0.013730073 0.091147095 0.025800176 0.049693268 0.0348481 -0.22839352 -0.020658905
0.071787275 0.052594498 -0.07086837 -0.11051234 -0.14962089 0.022260964 0.008020373 -0.011365026
-0.07679849 0.014520028 -0.016030978 0.0038875565 -0.055485908 -0.0005169488 -0.073411144 0.009191775
-0.04733852 0.120624095 0.001114662 0.05509611 0.013947713 -0.018907474 0.071022466 -0.052621562

fcs1.bias f4 [256]
00000000: fae3 13be 800b cc3d dd84 163e 2dc3 fc3d
00000010: 9993 afbd 0b88 0dbe c4f2 10be 8e45 4dbd
00000020: 1154 d7bd ce57 11be 620a 623b febd edbc
00000030: a6c9 2a3d 0758 f9bd 48dc a23c 71c9 b1bc
00000040: db8d 5b3d 85eb 55be 1411 57bd 3990 6b3d
00000050: 32b0 e0bd a62b 28bd 99f5 a73d d67a 52bd
00000060: 07e6 013d 96d5 7c3d 96e9 cabd fa6f 0dbd
00000070: 8698 ee3d b04d d13c 9672 d03d f86d b2bd
00000080: cb91 333e 7af7 4b3d 6ca3 e9bd 5b95 afbd
00000090: 9109 a83c 9a6e 54be c87a 26be 145b 503d
000000a0: 892b 6a3d b377 f83d b05b f0bd 482b 013e
000000b0: 071e d5bd 2dd4 eebd fd2e f83d 4b2b 01be
000000c0: 25ac 473d 444d 1ebd 88c5 3fbe e039 c73c
000000d0: 02c2 9a3d 24dc 593d 9353 ee3d 2796 443d
000000e0: c622 043e f576 db3c d202 b8bc 685e 59bd
000000f0: 79e5 a53c 54f6 983d 7c4c 103c bb60 f83d
00000100: d5d2 19bd 0bc2 21be de59 d13d df31 cfbd
00000110: 0c95 f63d 05ba ce3d 203a c13a 57be 743c
00000120: 6a00 1dbd 01bb c13c 1761 51be 4ff1 97bc
00000130: 093a 1abe b9f2 cebd eab5 1cbe 7146 b2bd
00000140: fb89 f83d 3283 093e 0238 1cbe 9e2b 16be
00000150: 6e10 393e ef9a 263d 5459 973d fe9d 6b3d
00000160: 7b28 6fbd d108 babd 02d3 a93d 2a8c 10be
00000170: 7fab 30be e860 9e3d af91 d1bd 7ecd 57bc
00000180: 2322 b53d 4135 dbbd e8a5 05be 2fb7 f8bd
00000190: 98dc 03be 73e3 873c 9357 443e 3c7a 7ebd
000001a0: c05c a03d 31cb 07be decb 863a cd68 5bbe
000001b0: 37dd adbc 9de9 143c d3cf e2bd b3c9 293e
000001c0: fad2 853c 7db3 b63d d32b 5c3e d6e2 8b3d
000001d0: 7aea 79bd 04a2 d63d 9be2 653e 846e 45be
000001e0: b65d 9dbd fb6a 94bc 6165 ddbd 7f59 35be
000001f0: 5769 a3bd 2fbc fbbd bb40 043e f3a2 123e
00000200: e317 5bbd 8353 4fbe 3387 153d fcab 943d
00000210: 6c8b 85bd 6271 4ebb 8cb7 b6bd d98d cb3d
00000220: e856 fc3d 4b8b ed3d 0724 d8bb 7f16 353e
00000230: 9414 553c 69cb 01be a7e3 bc3d 5f72 4d3e
00000240: 7db1 be3d 2f99 db3d 9c1e 493d b121 b93d
00000250: 36b2 323c 42da 1fbe 8c4a 70bd fbe6 9abd
00000260: e8ef 753d 34a7 fbbd e85c 9e3b 820a 1f3d
00000270: ad9d c2bd 7bcc efbd 49e4 bdbd 5b0b 173d
00000280: 5ff2 00be 04cf 3c3a d6d9 f83b 46ad d73c
00000290: e1c4 33be 1f2c 683d ae78 eabd b49d 7b3c
000002a0: fd40 99bd 8178 1cbe c3fd 513d 1cc7 203d
000002b0: 9190 bc3d ecc6 5e3e f83d 123e 37ef 533d
000002c0: ca75 b13d 8582 abbc 46fc 2fbe 5074 2b3e
000002d0: b8fd a13a 9fe6 dcbd a6ed cbbd bf62 123e
000002e0: 0950 e63d 31fa 1fbd a121 bebd 818b b6bd
000002f0: 119d 2f3e 12fa ddbd 167e fbbd 44d8 11be
00000300: 66a5 813d 63fe 173e 2b7f 2b3d a5f8 d03d
00000310: 1666 fcbd 6b02 f1bd 300b d9bd f2f1 46be
00000320: 05be cfbd cac0 dbbd e627 61bd 6e64 0dbe
00000330: c557 df3d 86b3 dd3b e955 123d 816c 953d
00000340: e2c6 30be 9177 97bd 02a1 35bc dc45 71be
00000350: 2e3c bf3d 579f 2fbe 5b2d 043e f61b 4e3e
00000360: 68b0 d0bc 97e7 8ebd 4415 013e 0e91 e0bd
00000370: 6527 8fbd e70c 0d3d 7821 413e a2de 023d
00000380: ee92 82bd 7484 3d3d 35c9 d7bd 972f 573c
00000390: 5537 23be 8dfd 03bd be4f 67bd d027 193e
000003a0: 0b0d 05bd feee 1b3e 90c4 6ebd e8aa f03b
000003b0: 9770 50be 28ab 1f3e e897 7b3d 7c9f 62be
000003c0: fe1c 1b3d 1233 a13d ee8c b9bc 532f eb3d
000003d0: 054c cd3b 337e 01bd f61f 563e 269c 2d3e
000003e0: 8333 003d d8e6 a53c 100d b7bb cc41 f1bd
000003f0: 08c0 183e 2ad5 6cbe cef6 1bbe 1ec4 d23d
-0.14442435 0.09963131 0.14699121 0.12341914 -0.08573074 -0.13821428 -0.14155108 -0.05011516
-0.10514081 -0.14193651 0.0034491052 -0.02902126 0.041696213 -0.12174993 0.019880429 -0.0217025
0.05360208 -0.20890625 -0.05250652 0.05751059 -0.109711066 -0.04105725 0.08201141 -0.051386677
0.03171351 0.06172713 -0.09907834 -0.034530617 0.11650185 0.02554974 0.101781055 -0.08712381
0.17536084 0.04979656 -0.114081234 -0.08573409 0.020512374 -0.20745316 -0.16257775 0.05086811
0.057170425 0.12132206 -0.11736238 0.12614167 -0.10406118 -0.11661563 0.12118337 -0.12614171
0.048748154 -0.038647905 -0.18727696 0.02431959 0.07556535 0.053188458 0.11637034 0.04799476
0.1290389 0.026790122 -0.022462282 -0.05306855 0.020251023 0.07468858 0.008807298 0.12127825
-0.03755458 -0.15796678 0.10222219 -0.10116934 0.12040147 0.10094074 0.0014742054 0.014937959
-0.038330473 0.02364874 -0.20447193 -0.018547682 -0.15061201 -0.101048894 -0.1530377 -0.08704842
0.12135693 0.13428953 -0.1525574 -0.14665076 0.18072674 0.0406751 0.07390085 0.05752372
-0.058388215 -0.09083713 0.082922 -0.14115968 -0.1725292 0.07733327 -0.10232865 -0.013171552
0.08844402 -0.10703517 -0.1305157 -0.121443145 -0.12877119 0.016587948 0.19174032 -0.06212829
0.07830191 -0.13261105 0.0010284146 -0.21426697 -0.021223648 0.009088901 -0.110747956 0.16580848
0.016335953 0.089209534 0.21501093 0.06830375 -0.06101463 0.10480121 0.22449724 -0.1928044
-0.076838896 -0.018117419 -0.10810352 -0.17709921 -0.07979076 -0.122917525 0.12915318 0.14319973
-0.053489577 -0.20246701 0.03650589 0.07259366 -0.06520733 -0.0031500687 -0.089217275 0.09939165
0.123212636 0.11598834 -0.0065960917 0.17684363 0.0130053945 -0.12675251 0.09223109 0.2006316
0.09311197 0.10722577 0.049101457 0.09039629 0.010906747 -0.15610602 -0.058664843 -0.07563587
0.060043246 -0.12287751 0.0048328526 0.03882838 -0.095027305 -0.117089234 -0.092720576 0.036876064
-0.12592457 0.00072024786 0.0075943274 0.02632774 -0.17555572 0.056682702 -0.11448799 0.015357424
-0.07483099 -0.15280344 0.051267397 0.039252385 0.09207261 0.2175557 0.14281452 0.051741805
0.086650446 -0.02093626 -0.17186078 0.16743588 0.0012358939 -0.10786175 -0.09957437 0.14295481
0.11245734 -0.03905696 -0.09283758 -0.08913327 0.1714976 -0.10838713 -0.12279908 -0.14242655
0.063303754 0.14843135 0.041869324 0.10203675 -0.12324159 -0.11768039 -0.10597837 -0.19428232
-0.10143665 -0.10730131 -0.05496969 -0.13807842 0.109054126 0.0067657856 0.03572646 0.07296086
-0.17263368 -0.07395852 -0.011085751 -0.23561805 0.0933765 -0.17150627 0.12907927 0.20127854
-0.025474742 -0.06977766 0.12605768 -0.10965167 -0.06989936 0.034436133 0.18860424 0.0319506
-0.06375681 0.046268895 -0.10536424 0.013133905 -0.15939076 -0.032224227 -0.056472532 0.14956594
-0.032483142 0.15227887 -0.058292925 0.0073445924 -0.2035545 0.15592635 0.061424166 -0.22131151
0.037869446 0.07871069 -0.022650208 0.11483636 0.0062651657 -0.031614494 0.2091063 0.16954097
0.031299125 0.020251676 -0.005586274 -0.11780128 0.14917004 -0.2312819 -0.15230867 0.10291313

fc2.weight f4 [128, 260]
00000000: d9b9 41bc 76c7 cbbd 3f84 223c 1316 573a
00000010: 4b09 afbd 6004 c8bb 3c05 60bd 3f41 693d
00000020: b843 50bc b0ec bf3c 1b84 f73d 496f c03d
00000030: a231 11bb d576 30bd 2388 95bd 8fb8 57bc
00000040: f260 5cbd e71f 0bbb 72fc 843d b36f 60bd
00000050: 590a 3bbd e02f 123c 281b 09be ad6b 993c
00000060: 4d2c bbbd 6fb5 b73d 2ebb 5bbd 18f9 b13d
00000070: 95b6 7abc 5adf 0e3e 0226 143d 523c 83bd
00000080: 2e5a 57bc 16d0 363c 5209 8b3d 5b06 a4be
00000090: e3d6 903c 05b1 5bbe d643 2bbe f20b ecbd
000000a0: b553 a63d 677c 00be 38e2 513d a866 1bbc
000000b0: 5bdf a7bd 1f6c 4ebc 1357 813d e1a9 ebbd
000000c0: 81f1 243d 2471 17bd ef6a 2dbd 154d 8cbc
000000d0: 608b 13be 6f8a 2ebe 0705 3c3c 669b 31bc
000000e0: 150f eebd 2e22 2fbc 2088 d4bc 6855 59be
000000f0: 8407 363d c0c7 8cbc 1b51 733d 2b5a c03c
00000100: 7a29 70bd 377c ef3b a723 a4bd 3045 c53c
00000110: 3c53 8eba 501b fdbd cc90 923d 9d7f e03d
00000120: 0ce4 76bd 5c63 02bd da54 bc3c fd3f d9bc
00000130: f4a2 87bc 8076 9abd 3e61 4cbe 2dce 703d
00000140: c8b6 2abe d4b8 0abc eca5 d8bc 6a91 923d
00000150: 3971 d4bd 4970 933c e8a2 d43d 6dec d8bb
00000160: e3f7 87bd ca0f 663d 80d0 4f3d 426b 3fbd
00000170: daf7 dabd aa72 933c 4da1 bdbd 683f 803d
00000180: 2eb9 78bb 955d 7bbc 268d 0f3e e385 9e3d
00000190: 457d 6b3c b4ff 923d 2856 cfbc e727 b2bd
000001a0: eab3 5e3d 5272 5e3b b0c9 803b a51b ed3c
000001b0: 1790 9d3b b654 d73d 9347 cabd 7666 e63b
000001c0: cb9c 21bd ef3a 0cbe 3755 963d 44ea 5abd
000001d0: 577f b73d 16d8 00bd 33b6 cc3d 9acc 93bd
000001e0: 2d15 37be 18c7 3d3a 1e4e 7abd 0135 5abd
000001f0: a1c6 48be 2343 e03c 7837 1e3d fb3c 04bd
00000200: af50 7bbd 09b7 99bc 71bf 2a3d 6461 483d
00000210: 950e 12bc ddde 92bd bf1d 36be 7ffe e0bc
00000220: 0e50 fbbc 8adf 563c 15d1 383d 5b2e 853d
00000230: ce87 77bd 5fc2 083e 6e2d 893d 86a3 283d
00000240: 3c2d 163c ca15 1f3c 6406 1e3d b9c4 21be
00000250: 2d36 d83c fc79 723d a41a 6e3b 9423 6d3d
00000260: a5c5 4dbd 74db 943d df84 4cbd 6c9c b0bd
00000270: 6f52 89bd b596 373d 54d3 8b3c aeef 22ba
00000280: 0a3f 5fbc 5284 cebd aadd 46bd 66f3 80bd
00000290: 4d83 3bbe 821f 713b d422 adbc b934 d5bc
000002a0: 50d7 143d 92b2 9ebd 97fd 663c 6cb7 fb3d
000002b0: 9d58 223e e592 f43b b99b 003d 3e5c 003e
000002c0: c4a9 3abd ff98 e63c 2b21 e53d 1476 10bd
000002d0: 5d06 aabc 568b 3c3c f1fe 2cbe ca7d 15be
000002e0: 713e f0bd 81a7 123d bfaf 91bd 5930 73bc
000002f0: c073 7a3d 2e6c 57bb 3359 44bc 48bc 873d
00000300: 6055 eb3d 7404 b8bd 3bfa afbd 971e 0fbe
00000310: f4d2 2cbe 13b7 45bc 1cf6 2c3c b7c0 fc3d
00000320: 6fb6 d83c ea74 273d 4adf 04be 6d8d 9c3d
00000330: ca08 f63d 7bc4 93bd 6a4c ae3d 13b3 dc3c
00000340: 8ff9 f53b c506 38bc 701d 1cbe 30c2 19bd
00000350: 2717 01bc f6b9 8cbe 4e7a f53a e844 763d
00000360: 4258 583d cd08 91bd e821 3bbd 32b8 063d
00000370: 54a0 0ebd a437 22be e231 08be 7d38 36be
00000380: 14ee 05bd d75a 433d 672d a6bc f719 86bc
00000390: 453e 893c 13b0 8d3c a136 92bc dfda 5e3d
000003a0: ce70 c33c 5b62 173d fab2 853c 0bf1 963d
000003b0: a445 393d b3a6 05be ca42 a63d 7496 8dbd
000003c0: 2df8 cb3c 3c05 1b3c 097c 283b b72e 4abc
000003d0: 0be6 a73d bbf7 babd 9afa 56bc 8e51 44bc
000003e0: 7c91 033d 25a0 25bd 6ab5 e9bd 7ae9 603c
000003f0: 2833 f93c e095 6c3d d1ca 223c 9027 783c
-0.011824095 -0.099501535 0.009919225 0.00082048884 -0.08546694 -0.006104037 -0.054692492 0.05694699
-0.012711458 0.023428291 0.12085744 0.09396226 -0.0022154828 -0.043082077 -0.07301357 -0.013166561
-0.05380339 -0.0021228732 0.064934626 -0.054794025 -0.045664165 0.008922547 -0.13389266 0.018728102
-0.09139309 0.089701526 -0.053645305 0.08690089 -0.01530232 0.1395239 0.03616906 -0.064079896
-0.013144059 0.01115801 0.06788887 -0.320361 0.017680591 -0.21454246 -0.16725096 -0.11525716
0.081214346 -0.12547456 0.05124113 -0.009484924 -0.081968985 -0.01259902 0.06315436 -0.11507011
0.04026938 -0.036973134 -0.042338308 -0.0171266 -0.14408636 -0.17044996 0.011475808 -0.0108402725
-0.116239704 -0.010689301 -0.025943816 -0.21223986 0.04444076 -0.017185092 0.05940352 0.023480495
-0.058633305 0.0073085087 -0.08014613 0.024080843 -0.0010858546 -0.12358725 0.07156524 0.1096184
-0.060276076 -0.031833038 0.02298968 -0.02651977 -0.016557194 -0.07542133 -0.1995897 0.058790375
-0.16671288 -0.008466918 -0.026446305 0.07156642 -0.10373158 0.017997878 0.103826344 -0.006619981
-0.066390775 0.0561674 0.05073595 -0.04673315 -0.10691805 0.017999012 -0.09259281 0.06262094
-0.0037952173 -0.015342136 0.14018688 0.077403806 0.014373128 0.07177678 -0.025309637 -0.08699017
0.0543708 0.0033942652 0.003930293 0.028943846 0.0048084366 0.10514204 -0.09876933 0.0070312573
-0.03945617 -0.13694356 0.07340472 -0.05344607 0.08959835 -0.031456076 0.09995689 -0.07216759
-0.17879172 0.0007239445 -0.061109655 -0.053273205 -0.19607021 0.027375763 0.038627118 -0.032284718
-0.061356243 -0.018764036 0.04168648 0.048921004 -0.008914609 -0.07171414 -0.17784785 -0.027465103
-0.030677821 0.013114819 0.04512127 0.06502982 -0.060432248 0.13355397 0.06698118 0.041171573
0.009166058 0.009709785 0.038580313 -0.157977 0.02639302 0.059198365 0.0036331797 0.057895258
-0.050237317 0.0726842 -0.049931403 -0.08623585 -0.06705176 0.04482146 0.017068543 -0.00062155246
-0.0136258695 -0.10083832 -0.04855124 -0.062964246 -0.18311806 0.0036792462 -0.021134771 -0.026026117
0.03633815 -0.07748903 0.0140985465 0.12290844 0.15854116 0.0074638003 0.03139851 0.12535188
-0.045572057 0.028149126 0.11187967 -0.035268858 -0.020754987 0.01150783 -0.16894127 -0.14598766
-0.1173066 0.035804275 -0.07113599 -0.01484307 0.061145544 -0.0032870877 -0.011984157 0.06627709
0.11490893 -0.08985224 -0.085926495 -0.13976513 -0.16877347 -0.012067574 0.010556724 0.12341445
0.026454179 0.040882982 -0.12975803 0.07644162 0.12013395 -0.0721521 0.085106686 0.026940858
0.0075065563 -0.011232083 -0.15245605 -0.037538707 -0.007879055 -0.27485627 0.0018728466 0.060124308
0.052818544 -0.07081757 -0.045686632 0.032890506 -0.03482087 -0.15841538 -0.13300279 -0.17794986
-0.032697752 0.047694054 -0.020285321 -0.016369803 0.016753325 0.017295873 -0.017848315 0.05440795
0.0238575 0.036959033 0.016320694 0.07370194 0.04523243 -0.13051872 0.08118208 -0.06913462
0.024898613 0.009461697 0.0025708696 -0.012340239 0.08198174 -0.09129282 -0.0131212715 -0.011982335
0.032121167 -0.04043593 -0.11411555 0.01372754 0.030419901 0.05776012 0.0099360505 0.015146151

fc2.bias f4 [128]
00000000: cb1c 39bd bb72 36bd 96ed 15bd 8965 813d
00000010: 2d64 17bd 97d6 9d3d 488a 3a3c dffa 1b3d
00000020: 1ec2 b43d 65fd 2f3c 62a7 9e3c 0261 07bc
00000030: 4675 c2ba 027c 0a3d b66f 62bc 73e3 afbd
00000040: f25a c83d d4de ab3d 7c24 77bd 5503 983d
00000050: 9d23 fc3d a943 eebb b9e0 a83d de77 043d
00000060: b01a 313c 3c32 aebd 7b93 783c 1ae5 b03d
00000070: 340c 0c3d 3520 0a3e e6ae 81bd e52b 993c
00000080: e5fb 03bd c013 003e 7f3c b4bd d972 193c
00000090: e2e7 023d 383c a6bc e69f 083d 5b49 bfbc
000000a0: 5d24 3f3d e77b de3d 5117 08bd a888 6a3d
000000b0: 656e cf3c 64f1 9b3a 4f2c 9a3b 9997 853c
000000c0: 48cc 153d aafe f93d 0303 31bd 21a8 9c3d
000000d0: d569 573d 0b04 00bd add1 8dbc 9606 10bd
000000e0: 88a8 2f3d 94b0 083d 85e5 c9bc 9e15 043e
000000f0: e217 c93c 9179 42bb 2385 abbd 5a35 43bb
00000100: 549d 3ebc 462d fc3b dbf0 8c3d 023f 2fbd
00000110: bade a73d cbb5 0bbd 23b6 60bc b7a2 a93d
00000120: 34fd a1bd 06ed 423c 4517 ac3d c36c 22bd
00000130: af51 7fbd d51b a9bc 748b f23b dee1 fd3c
00000140: 5564 fabb e6d1 04bd 36e3 bf3d 1292 c93d
00000150: 67d6 a13d 2a6f 7c3d f8d8 a23d 1cc2 3fbd
00000160: 5f08 0d3b 6e8a fd3c 5e10 a8bd fd32 97bd
00000170: fc32 dd3c c305 f63b fe8e b93c d730 853d
00000180: 0069 f73d c488 7ebd 33dc 8bbd 156b 143c
00000190: d021 2fbd 8d92 823c 2c4c bc3c bb3c c73d
000001a0: 8580 06bd b350 a53d 44ea 983d c538 12bc
000001b0: db42 c23d aa30 f23c 32d3 2fbb 59d2 f23d
000001c0: b1c9 033e 8c3b babd 5174 c13c ec07 8ebd
000001d0: 86f1 373d bdd7 ba39 408c a03d d340 833d
000001e0: ea2a 9638 7724 193e e509 653d de87 873d
000001f0: ab53 22bd 3667 b7bc dfef 0abd 83ad 603d
-0.045193475 -0.04454301 -0.036603533 0.063181944 -0.03696077 0.077069454 0.011385508 0.038081046
0.088260874 0.010741566 0.019366924 -0.008262875 -0.0014835976 0.03380967 -0.013820579 -0.08588304
0.097829714 0.083921105 -0.06033753 0.074225105 0.1231148 -0.0072712493 0.082459874 0.032340877
0.010809585 -0.08505675 0.015171881 0.08637448 0.034191325 0.13488849 -0.06332187 0.018697688
-0.032222647 0.12507534 -0.08800601 0.009365761 0.031959422 -0.020292386 0.033355616 -0.023350408
0.046665538 0.10863476 -0.03322536 0.05725923 0.025321195 0.0011897502 0.004704989 0.016307639
0.03657177 0.122067764 -0.043215763 0.076492555 0.052591164 -0.031253856 -0.017311895 -0.03516253
0.042885333 0.033371523 -0.024645576 0.12898871 0.024547521 -0.002967451 -0.08375003 -0.0029786439
-0.01163419 0.0076958267 0.06881877 -0.0427847 0.081967786 -0.03410892 -0.0137153 0.082829885
-0.07909623 0.011897331 0.08402876 -0.039654505 -0.06233376 -0.020643154 0.007401878 0.03099149
-0.007641355 -0.032426737 0.09369509 0.09842314 0.07902222 0.06162945 0.0795154 -0.046815977
0.0021519882 0.030949797 -0.08206247 -0.07382772 0.02700185 0.007508011 0.022651192 0.06503456
0.12080574 -0.06214215 -0.06829109 0.0090587335 -0.042756855 0.015939021 0.02298554 0.0972838
-0.03283741 0.08072033 0.074665576 -0.008924668 0.09485408 0.02956422 -0.0026828763 0.11856527
0.12869908 -0.09093389 0.023615034 -0.06935105 0.04490807 0.00035637422 0.078392506 0.064088486
7.160551e-05 0.14955316 0.05591764 0.066177115 -0.039630573 -0.022388082 -0.033920165 0.054852974

fc3.weight f4 [1, 128]
00000000: d90f 18be a985 cfbd a048 96bd c35f c73d
00000010: ed76 11bd e87f 213e 26c1 33be 70bc 3e3d
00000020: 08ef 8c3d c384 de3d 7cf0 3d3d dd99 73bd
00000030: 2dd2 653d dbc5 863d 3075 97bd fb17 95bd
00000040: 1473 713d 2f17 2d3d 8f70 2cbe c36c c63d
00000050: fcbf 3e3d f5c8 fe3d 3e7a c23d 67a7 f0bd
00000060: e90f 4c3d d3f2 0ebe 997b a73d d70d 8f3d
00000070: 4208 1d3e e575 5c3d 7172 8cbd 288e ed3d
00000080: 77dd 993d 6f47 773d 1b4c 59be 15ab 9fbd
00000090: 032e 873d 3af9 e4bd 2861 443d 8705 9ebd
000000a0: 4848 8e3d 73a7 993d 4232 16be 9eae 9e3d
000000b0: 8295 be3d 31cf 24bd a84f d8bd 6db6 653d
000000c0: 816d 723d 09a0 d93d 6404 b6bd 62da 4d3d
000000d0: bd86 a23d 36f9 753d 6cf7 acbd 4348 f4bd
000000e0: e6f7 283d 5eb6 5d3d 5d3f 0bbe 3e49 a43d
000000f0: 5d19 5a3d 754c 8fbe 534e f1bd 57fb bebd
00000100: 3be3 4bbe 4b9f 4dbd eb4b 2b3d f228 a1bd
00000110: 55a9 3d3d 1098 acbd 62e0 80be d437 753d
00000120: 55ab 30be 8ce9 a6bd 9768 433d 9940 01be
00000130: 2ffe 05be 17a4 0a3e 84c3 703d 61ba 773d
00000140: adf1 3fbd f770 e63d 743d df3d 764c b33d
00000150: 5f6d 253e b5dd 203d 9558 df3d aa1c 80be
00000160: b2f4 123e 4398 7fbd 4fdb 0cbe cff3 05be
00000170: 6d7c 2f3d 3cf2 063e 0535 87bd c5d8 b43d
00000180: 85f7 833d 4ad7 11be e959 b4bd c0a1 633d
00000190: a4a8 27be f829 1abe b6af bdbd 3eeb 513d
000001a0: a1f6 d8bd 04aa 923d eeea ea3d 89e6 6b3d
000001b0: 3cdc f33d cf10 f23d b3d6 6abd 4446 893d
000001c0: e1ff 123e 72f4 5cbd a592 17bd e5ee eabd
000001d0: e0ac dd3d 7893 893d 7a18 f93d 2b8f 023d
000001e0: 7e62 01be 4727 703d 2107 853d 3e57 4f3d
000001f0: 3c04 53bd 35fd 7abd 72a7 933d 28de 3c3e
-0.14849795 -0.101329155 -0.07338071 0.09735062 -0.035513807 0.15771449 -0.17554149 0.046566427
0.06881529 0.10865166 0.046371922 -0.059472907 0.056108642 0.06580707 -0.073953986 -0.072799645
0.058947638 0.042258438 -0.16839813 0.096887134 0.04656981 0.12440673 0.09495972 -0.117506795
0.04981986 -0.13959818 0.08177871 0.069850616 0.15335181 0.05382337 -0.068577655 0.1159938
0.07512944 0.06037086 -0.21220438 -0.07796303 0.06600573 -0.11180349 0.047944218 -0.07715898
0.0694738 0.075026415 -0.1466761 0.07748149 0.0930586 -0.040236656 -0.10562068 0.056082178
0.059186462 0.106262274 -0.08887556 0.050257094 0.079358555 0.06005212 -0.084456295 -0.11927845
0.04125204 0.054128997 -0.1359839 0.08021782 0.053246845 -0.2798802 -0.11782517 -0.09325283
-0.199109 -0.05020074 0.041820448 -0.07869138 0.046304066 -0.08427441 -0.2517119 0.059867695
-0.17252858 -0.08150014 0.047707167 -0.12622298 -0.13085245 0.13539158 0.05878021 0.06048048
-0.04686134 0.11252015 0.10900393 0.08754818 0.16155003 0.039273936 0.109055676 -0.2502187
0.14351156 -0.062401067 -0.13755535 -0.13081287 0.04284327 0.13178343 -0.066019095 0.08830408
0.06443695 -0.14242283 -0.088062115 0.05557418 -0.16372925 -0.15055072 -0.0926203 0.051249735
-0.10593916 0.07161334 0.114705905 0.057592902 0.11907241 0.11819612 -0.05733366 0.06702855
0.14355423 -0.05394406 -0.037005085 -0.11471347 0.10823989 0.067175806 0.12162872 0.031874817
-0.12635228 0.058631208 0.064955 0.05062031 -0.05151771 -0.061276633 0.07209672 0.18444121
